ml/v2/1st/tfidf_vectorizer.onnx (onnx, 439759 bytes, 1 tensors)

idfcst f4 [20000]
00000000: e8f9 aa40 1a2a 2940 284c c840 2f83 ba40
00000010: 9c26 a840 4c13 ae40 09b4 a740 007d ac40
00000020: 5324 a540 af10 a940 af10 a940 410a b640
00000030: 18ab c040 410a b640 e51d b240 da81 b140
00000040: 135a b540 cde4 d540 8ab6 bf40 569f ae40
00000050: aaa4 cd40 99cd c440 9bad b440 9652 bb40
00000060: 2624 9a40 aaa4 cd40 aacb 9540 fedb 9f40
00000070: c221 cf40 b104 b440 a455 d240 045a 9340
00000080: dcdc 9040 c221 cf40 dedb ca40 007d ac40
00000090: 0b90 a040 135a b540 0192 3d40 4788 a940
000000a0: 3502 ad40 135a b540 e7b8 b940 8438 cc40
000000b0: 007d ac40 6127 bc40 748d c940 284c c840
000000c0: 72b1 d040 c221 cf40 72b1 d040 aaa4 cd40
000000d0: a455 d240 70d5 d740 a455 d240 dedb ca40
000000e0: aaa4 cd40 8ab6 bf40 cde4 d540 9d89 ad40
000000f0: d801 bd40 c221 cf40 70d5 d740 23e6 d940
00000100: 2da7 c140 aced 0540 a772 2240 00b8 9840
00000110: 5e66 8440 f7c4 7b40 2da7 c140 159a 8540
00000120: 615c 8d40 f707 7840 d801 bd40 4788 a940
00000130: b58e 9c40 c0cd 7240 ddbe 9140 6e83 9f40
00000140: f76e 9a40 8635 a040 112d 7940 8b90 9940
00000150: 6127 bc40 8ab6 bf40 135a b540 2395 8f40
00000160: c63b 4640 8ab6 bf40 fd16 c740 154d 9140
00000170: dedb ca40 fd16 c740 4c13 ae40 e7b8 b940
00000180: 4ce2 bd40 e0b7 c340 dedb ca40 2da7 c140
00000190: 43ab c240 a501 aa40 c221 cf40 aaa4 cd40
000001a0: 8ab6 bf40 d801 bd40 4ebe b640 e0b7 c340
000001b0: cf2d af40 43ab c240 4ce2 bd40 af10 a940
000001c0: 6e83 9f40 088e a540 09b4 a740 315f b340
000001d0: ae61 1440 9fb7 1440 6bdf 9c40 7654 3740
000001e0: 4788 a940 315f b340 7ffc 8140 f8f8 7140
000001f0: cebe af40 2861 4340 6e83 9f40 cba3 7940
00000200: 104c 8540 6952 b040 ab02 8740 a5cb 9440
00000210: 2624 9a40 135a b540 7260 8640 cebd 5240
00000220: 5d70 6440 159a 8540 5b66 8c40 e7b8 b940
00000230: d801 bd40 942a 8d40 b104 b440 2f83 ba40
00000240: 6127 bc40 4ce2 bd40 cba3 7940 8ab6 bf40
00000250: 18d2 8840 a48a a340 9853 9b40 2da7 c140
00000260: b58e 9c40 a48a a340 99cd c440 99cd c440
00000270: a48a a340 a48a a340 f8a9 1940 2ba8 8740
00000280: d801 bd40 aaa4 cd40 4ebe b640 9652 bb40
00000290: 88b4 5b40 7996 9340 748d c940 dedb ca40
000002a0: 284c c840 8ab6 bf40 135a b540 99cd c440
000002b0: e51d b240 8d6c 9240 b947 9940 6127 bc40
000002c0: d09a a840 284c c840 748d c940 e51d b240
000002d0: 5324 a540 99cd c440 d801 bd40 941f 8240
000002e0: 43ab c240 5481 8940 b104 b440 18ab c040
000002f0: b5df e640 065a 8e40 dedb ca40 f76e 9a40
00000300: 13c9 be40 bae8 b040 748d c940 13d2 8740
00000310: c861 8a40 3312 7440 348c 8440 36d6 8b40
00000320: 11ed c540 748d c940 5f10 2640 bae8 b040
00000330: 2f83 ba40 fd16 c740 6223 3540 4d75 3540
00000340: 5e17 9740 af10 a940 11ed c540 43ab c240
00000350: aaa4 cd40 9bad b440 13c9 be40 a571 8140
00000360: 72b1 d040 72b1 d040 8ab6 bf40 9652 bb40
00000370: 135a b540 dedb ca40 ea78 ab40 6203 7340
00000380: af10 a940 2da7 c140 748d c940 c221 cf40
00000390: 2822 5940 5481 8940 e51d b240 1371 9840
000003a0: 8177 8b40 99cd c440 7ff3 b840 5324 a540
000003b0: 2b04 2440 e748 7440 4788 a940 9bad b440
000003c0: dcdc 9040 135a b540 fd16 c740 3502 ad40
000003d0: 8ab6 bf40 99cd c440 fd16 c740 09cd 7540
000003e0: 7ff3 b840 6127 bc40 70d5 d740 c22a 9840
000003f0: 8726 8840 f2d3 9640 8cff 9840 f76e 9a40
5.343006 2.6431947 6.2592964 5.8285136 5.254713 5.4398556 5.240727 5.390259
5.160684 5.2832866 5.2832866 5.6887517 6.0208855 5.6887517 5.566149 5.547101
5.6672454 6.68418 5.9910326 5.45695 6.4263506 6.1500974 5.646192 5.8538313
4.8169127 6.4263506 4.6811113 4.9956045 6.472871 5.6255727 6.572954 4.604738
4.5269604 6.472871 6.3393393 5.390259 5.0175834 5.6672454 2.9620364 5.2978854
5.4065194 5.6672454 5.803821 6.381899 5.390259 5.879807 6.298517 6.2592964
6.521661 6.472871 6.521661 6.4263506 6.572954 6.7448044 6.572954 6.3393393
6.4263506 5.9910326 6.68418 5.4230485 5.906475 6.472871 6.7448044 6.809343
6.051657 2.0926313 2.5382478 4.772461 4.137496 3.9338968 6.051657 4.175059
4.4175267 3.8754861 5.906475 5.2978854 4.8924203 3.793808 4.5545487 4.9847937
4.8260455 5.0065336 3.8933756 4.7988944 5.879807 5.9910326 5.6672454 4.486955
3.0973983 5.9910326 6.221556 4.5406594 6.3393393 6.221556 5.4398556 5.803821
5.933874 6.1161957 6.3393393 6.051657 6.083406 5.3127007 6.472871 6.4263506
5.9910326 5.906475 5.7107306 6.1161957 5.474342 6.083406 5.933874 5.2832866
4.9847937 5.173588 5.240727 5.60537 2.318462 2.3237073 4.9022727 2.86453
5.2978854 5.60537 4.0620723 3.7808208 5.4920416 3.052805 4.9847937 3.9006221
4.165535 5.51006 4.2190757 4.649859 4.8169127 5.6672454 4.199273 3.2928348
3.569358 4.175059 4.3874946 5.803821 5.906475 4.4114475 5.6255727 5.8285136
5.879807 5.933874 3.9006221 5.9910326 4.275646 5.110674 4.8539543 6.051657
4.8924203 5.110674 6.1500974 6.1500974 5.110674 5.110674 2.400999 4.2392783
5.906475 6.4263506 5.7107306 5.8538313 3.4328938 4.6121182 6.298517 6.3393393
6.2592964 5.9910326 5.6672454 6.1500974 5.566149 4.575751 4.790005 5.879807
5.268898 6.2592964 6.298517 5.566149 5.160684 6.1500974 5.906475 4.0663548
6.083406 4.297037 5.6255727 6.0208855 7.214808 4.448489 6.3393393 4.8260455
5.962045 5.528409 6.298517 4.244394 4.324436 3.8136108 4.1421146 4.369899
6.185189 6.298517 2.5947492 5.528409 5.8285136 6.221556 2.8302846 2.8352845
4.7216024 5.2832866 6.185189 6.083406 6.4263506 5.646192 5.962045 4.0451226
6.521661 6.521661 5.9910326 5.8538313 5.6672454 6.3393393 5.35851 3.7970815
5.2832866 6.051657 6.298517 6.472871 3.3927097 4.297037 5.566149 4.763803
4.358338 6.1500974 5.7797236 5.160684 2.5627544 3.8169496 5.2978854 5.646192
4.5269604 5.6672454 6.221556 5.4065194 5.9910326 6.1500974 6.221556 3.8406394
5.7797236 5.879807 6.7448044 4.7552195 4.254703 4.713372 4.7811947 4.8260455
